mnist_model.pth (torch, 903344 bytes, 8 tensors)

0.weight f4 [32, 1, 3, 3]
00000000: 2a9f 463d 3dcc b0be 3e09 92be 0fb3 143e
00000010: 95e8 e6bd 7b50 7d3c 4fc6 863d cceb cc3e
00000020: e86f 02bd a7d2 60be 21c9 643e 18c0 f23c
00000030: 06e9 453d 54c5 8e3e d46b 9f3c 3a9c 74be
00000040: e9a2 863e 8427 733e 223c d53d 96c6 d3bd
00000050: 432d f4be 9412 8e3e ff21 353e 917c a1be
00000060: cbdf 13bd 10a8 ae3e 9daf ab3e 9c19 413e
00000070: 9bd3 a63d f9dd bdbd 4e97 0b3c f3ff 833e
00000080: 362e c5be f370 fabe e3d7 c23e 6028 493e
00000090: ea42 a43e 079d 9e3e e885 e23e 59cb 1dbe
000000a0: 6f1d a6be d9d0 b7bc 0c2e c8be 21d4 88bd
000000b0: 881f f8be eb2a 083e ff07 b6be b1ee e3bd
000000c0: 09b5 82be 4c8f 7e3e 0346 d93e 9eda e03c
000000d0: dfcf 2cbd 5a21 e0bd 5277 c2bb 1e43 e7be
000000e0: 37b6 08bf 328c c83e ecb4 9c3e 4281 c23d
000000f0: 103a 9ebd 108e 473d 943d c03e 7898 4dbe
00000100: ef5c 02bf f79c a7be 891f 6f3e 1221 0c3e
00000110: bedf 59be 67b0 0a3e 39d3 033f 2b32 da3d
00000120: 1bdf 24bf 1bc0 903c 2136 b83e 8e71 57be
00000130: 26df 5fbf 4ac4 c0be 5eb9 de3d aa58 47be
00000140: 5cec c2be 85e0 ecbe 78b9 d33c ca59 cb3e
00000150: 5b90 f1bd 8c48 6ebf 22e8 ddbe c741 b4bd
00000160: 45d8 5bbd 5893 d2be 1433 9abe c8e2 86be
00000170: 022d 96be 4b2f 17be 8a1c 443e 704f 9b3c
00000180: 6082 16be ffc9 86be 18cb a9be addb de3d
00000190: ef6e 94be 7496 9dbe 23a4 babd fd41 72be
000001a0: 1301 eabd 66bf 6f3e 0fbb a23e ed56 da3e
000001b0: ff8a 01bd bae6 073e 2354 3f3d 2d51 f4bd
000001c0: b15c de3e 015d f93e c106 bebe f71f 03bf
000001d0: d94b 39bd 98da b43e b942 3f3d 2383 c23e
000001e0: 0c7b 693d 5578 bc3d 25fe 5b3e 4626 e2be
000001f0: 9f4d 10bf 7a47 e6be 9a69 83bd feff f2be
00000200: fcfe 71bd 5b49 86be c040 b13e ef83 3a3e
00000210: a638 d43d c8cb 163e 95c6 51be 0cb1 013f
00000220: f42c 91be 4aac e1bd c81b b83e 5d5c a7bc
00000230: 6b7c 02bf ac36 643e c62b 9c3e 1d74 75be
00000240: f5e0 5fbd 8d78 77be a030 703e f227 eebe
00000250: e3cb 87bd 8065 373e 52be 2ebe 3694 fe3d
00000260: bb96 103e 5a96 4b3e 04ba 9e3e 8121 a0bd
00000270: 0260 5c3e 6eff 863e b7da 0c3e 0202 833e
00000280: 49a5 bc3c 0890 05be 80ad d3be c0f9 31bf
00000290: 52b3 b8bd 3087 24bf e74d 3a3e 992a 4b3e
000002a0: 752d 86be a3f1 5c3e 4ad7 b13e 9222 423e
000002b0: dc36 e43e d7f0 723e c77a 733e 2879 f63e
000002c0: c247 3abe 7c48 14be c4a7 d3be bb2f 09bf
000002d0: cf91 b9be cce0 083e 39a0 c8bc 2bcc 05bf
000002e0: ff4b 75be 8c11 eb3e 780e d13c bbfe bf3e
000002f0: b86b 8d3e 93ee db3d bf53 75bc d223 103f
00000300: 8939 0bbf 00a0 18be f81f db3e 9c4d bebe
00000310: 18c4 b3be 6318 043e 7c26 00be e5c9 9e3e
00000320: 20bc 293e fdf8 f5be 9253 16bf fb4e d0be
00000330: 442b e33e 5d84 da3d bc8b 0a3e 4ba6 223f
00000340: 4c3c 103f 83b0 28be 7a03 893d b408 d6be
00000350: 0bb5 15be f2e3 f6bd 595b 27bf 9eaf bfbe
00000360: 5ccf 133b 21ca b33e 3508 05bf 8fac fcbd
00000370: a2be 033e eacb 033f e246 cb3c dc83 95be
00000380: 845f 60bd 850b 3ebd 60bb 89be b3a4 e4bd
00000390: 7d9c 8d3e 3075 bbbe 8b9d 7cbe ff5d 853e
000003a0: 0102 d13e 8b2e 213e d08b b6bc 542e 95bd
000003b0: 14ff 903d 66ce c9bd 03ac 67be 4867 9ebe
000003c0: c868 3abd 8bca 31be 6068 f7bd 17c5 d5bd
000003d0: 72c0 eb3e 956e bf3e 2a64 14bf db6c 19bf
000003e0: 9782 9c3e 232e e33d 4e6f 0ebf 0c99 fbbe
000003f0: ce12 03be a08a 8ebe 5082 843c 087a 4f3d
0.048491634 -0.3453082 -0.28522676 0.1452143 -0.1127483 0.015461083 0.06580793 0.4002365
-0.031845003 -0.21955357 0.2234235 0.029632613 0.04831793 0.27884924 0.019460596 -0.2388772
0.26296166 0.23745543 0.1041186 -0.10340612 -0.47690782 0.2774855 0.1768875 -0.3154035
-0.036102097 0.34112597 0.3353242 0.18857425 0.08145829 -0.092708535 0.008519961 0.2578121
-0.3851182 -0.48914298 0.38055333 0.19644308 0.320823 0.30979177 0.44242787 -0.15409602
-0.3244433 -0.022438454 -0.3909763 -0.066810854 -0.48461556 0.13297622 -0.35552976 -0.11129511
-0.25528744 0.24859351 0.42436227 0.027447995 -0.04219043 -0.10943861 -0.0059346342 -0.45168394
-0.5340304 0.3916946 0.30606782 0.0949731 -0.07725918 0.048719466 0.3754698 -0.20077693
-0.50923055 -0.32736942 0.23351873 0.1368449 -0.21276757 0.13543855 0.51494175 0.106541
-0.6440293 0.017669728 0.35978797 -0.21039411 -0.8744987 -0.37649757 0.108752 -0.19467416
-0.38070953 -0.46265045 0.025845274 0.3971694 -0.11795112 -0.9307945 -0.43341166 -0.088016085
-0.053673048 -0.4112804 -0.30117095 -0.26344895 -0.29331213 -0.14764135 0.19151512 0.018958777
-0.14698172 -0.26325986 -0.3316276 0.108817436 -0.28990886 -0.3077885 -0.09113338 -0.23657985
-0.11425986 0.23412856 0.3178334 0.42644444 -0.031626698 0.13271609 0.0467111 -0.119295456
0.43430093 0.4870377 -0.37114528 -0.5122065 -0.04523835 0.35323024 0.04669449 0.37990674
0.057002112 0.09202639 0.21483667 -0.44169825 -0.5636844 -0.44976407 -0.06416626 -0.47460932
-0.059081063 -0.2622784 0.34619713 0.18214391 0.10362367 0.14726174 -0.2048591 0.5066078
-0.2835461 -0.1101919 0.35958695 -0.020429784 -0.50971097 0.2228648 0.30502146 -0.23970075
-0.054657895 -0.2416708 0.23456049 -0.4651485 -0.06630685 0.17909813 -0.17064789 0.12430613
0.14119999 0.19881573 0.31001294 -0.0781889 0.21520999 0.26366752 0.13755308 0.2558747
0.023028033 -0.13043225 -0.41343307 -0.69521713 -0.09018578 -0.6426878 0.1819378 0.19840468
-0.26206556 0.21576552 0.34734565 0.189585 0.44573104 0.23724686 0.23777305 0.4813931
-0.18191436 -0.14480776 -0.41338933 -0.53588456 -0.36244056 0.13367003 -0.024490463 -0.5226466
-0.23954771 0.45911825 0.025519595 0.3749903 0.27621245 0.10738864 -0.01497358 0.5630466
-0.54384667 -0.14904785 0.42797828 -0.37168586 -0.35110545 0.12899928 -0.1251468 0.31013408
0.1657567 -0.48041525 -0.5872127 -0.40685257 0.44368947 0.106697775 0.13529867 0.6353499
0.56342006 -0.16473584 0.06690116 -0.41803515 -0.14619844 -0.12055196 -0.6537376 -0.37438673
0.0022554016 0.3511515 -0.5196565 -0.123376004 0.1286569 0.51483023 0.024814073 -0.29202163
-0.05477859 -0.046397705 -0.26900768 -0.111642264 0.27658454 -0.36612844 -0.24669473 0.26048276
0.4082184 0.15740411 -0.022283465 -0.07284227 0.07079902 -0.098538205 -0.22624211 -0.30938172
-0.045510083 -0.1736242 -0.12080455 -0.104379825 0.46045262 0.37389055 -0.5796534 -0.59931725
0.30568382 0.11092784 -0.5563859 -0.49140203 -0.12800142 -0.27840137 0.01617542 0.050653487

0.bias f4 [32]
00000000: b984 9fbd b5b4 60bd 0782 c3bd adef dabd
00000010: b810 803d 4d86 afbb f806 8bbc f021 68bc
00000020: 579c a13e 722e a73e 9045 64be bdcf a0bd
00000030: 5101 5cbc bf3d 713d c513 a93d e4b4 86bd
00000040: f729 5fbd 5902 15be 975a 813e 0b3f 08bd
00000050: 93c7 e6bd 69dc 103d 21c3 5c3d 7d22 373e
00000060: 436e 53be 3b04 a0bd b39a 7fbe 40f8 4c3e
00000070: 2b52 0dbe eaeb cabc b52d fcbd e689 e5bb
-0.07788987 -0.054859836 -0.09546285 -0.10690246 0.06253189 -0.005356586 -0.016971096 -0.014168248
0.3156459 0.32652622 -0.22292161 -0.07852123 -0.013428048 0.058896776 0.08255724 -0.06577471
-0.05448338 -0.14551677 0.25264427 -0.033263247 -0.112685345 0.03536645 0.053897027 0.1788425
-0.2064753 -0.07813307 -0.24961357 0.20016575 -0.13800876 -0.024770696 -0.123134054 -0.007004964

3.weight f4 [64, 32, 3, 3]
00000000: 24e7 aa3c f31a 31bd c881 dabd 34b0 5a3d
00000010: 3365 b73d 416e 8c3d aaf6 74bd fc0f efbc
00000020: d3c5 f83d 06c2 2bbe 1e26 49bb 382a 1dbd
00000030: 00b5 1dbc 76f0 8d3d e271 4e3c a274 063d
00000040: 5cc2 a93d a181 5e3c a288 0a3c d8e6 a3bd
00000050: b75b 8fbd 34cf 543d 3197 ae3d e1db 313d
00000060: 4828 2bbd c6ff 133d b1cb 8b3d 8e80 2abe
00000070: c1a2 993b 484f 10bd 8c5f b63b e009 f33d
00000080: 25a2 a33d 514d 533d 0c0b 123e 2308 41bc
00000090: f943 433e a287 023e 9fce 0d3e 87a8 8bbd
000000a0: 3967 38be 1caf 4abd 495b d93a 7e44 c73c
000000b0: aa4a 0abe 84ae 49bd b77d 733d ff57 eebd
000000c0: c914 b63d bcba 2c3c 4302 1ebe 2406 02bd
000000d0: 1402 6cbd 6690 9bbc 68d9 b73d 9f12 3ebc
000000e0: 7fea d1bd d999 0e3e aadc f43d cae7 943d
000000f0: 400c 59bc cfa5 2b3d 487f 7e3d 13f0 593e
00000100: 535d 1d3e 7b5e 19bd e88b 263d 5435 fa3c
00000110: 054b 433e 9073 053c 92e0 f7bd e2d4 d4bb
00000120: 54c9 aa3c b3e1 eebc eb51 23bb bd4f 3abc
00000130: 1d83 f4bd b8d2 e03c d930 1fbe 6a49 db3a
00000140: a472 723c cbcd a53b 05af b1bd c795 48bd
00000150: bd01 3cbc 3900 33be 6a7d bd3b 867d 60bd
00000160: 1485 8cbc bd51 b7bc b476 b9bc bbf5 093d
00000170: c890 31bd 86cc 90bc 21c0 edbc 3c06 6b3c
00000180: 903a c5bb f915 6d3d 74ac 7cbc 23fb 473e
00000190: 3210 233e ec5a b6bd 02f7 bd3d e7da 2f3e
000001a0: eff2 903d dbca 50be 8ea7 ccbd 9867 223c
000001b0: f422 debc 13d4 9a3d 84d2 c4bc 4625 ddbd
000001c0: 8bce 29bc c332 89bc d9ae 4ebd d661 60bc
000001d0: 119e 5cbd 5ae3 fe3b 3fd2 b4bb 0305 323d
000001e0: 4c0a a4bd 9bd8 d2bd 3c94 82bd 552b 853d
000001f0: c425 953c b640 aabd 3c5f 773d d680 b8bc
00000200: 1587 23bc 7a7c 513c 0e7d af3a e294 d0bd
00000210: 3d99 aebd d9ca 47be d170 91bd d835 2abd
00000220: 7e47 0cbe c771 0f3e 5182 1bbe be31 75bd
00000230: 114d 2b3d 3f1d b6bd fcc8 8e3c b308 9b3d
00000240: f170 f6bc 15f5 923d 2f95 0cbe 403e 28bd
00000250: a6a9 83bd f9ec 9ebd 5cf9 0ebd 5066 123d
00000260: cc24 373d 0656 10be 95fa bbbd be33 81bd
00000270: ba3e 85bc c4c0 d73c 9b45 4abd 5d90 743d
00000280: e293 82bc fb9e 193d 9f5d eebc 282f 0dbd
00000290: b82f 10be 99fd 10be 001a 04be fb3e 34be
000002a0: 521d 42be 8b42 63be dafd 45be 6cb0 66bc
000002b0: 1c25 49bc 69b8 093d 3234 41bd 140a 94bc
000002c0: eaa4 10be 796b 5b3c 780e 993d 5c95 03bd
000002d0: a46b 79bd 3565 bf3d 6602 3cbe c44d e2bc
000002e0: 83b7 c9bc 6573 26bd 668f 79bd 3886 0fbd
000002f0: 3bec 35bd 0dea f4bd 3d19 083e 2774 7bbd
00000300: 40d8 54be c0ef 01be a76a b8bd c499 92bc
00000310: 1b1c 523c 521b b0bd 8e8d 893e c151 313e
00000320: 5c5a d23d 40b7 6f3e ab71 403d a06d 063e
00000330: 7e9b 1fbe 3c54 bb3d fb89 84bd 707c 1f3c
00000340: 42d6 a43b 42fc 043e 534c 02be a6fb 42be
00000350: f765 ecbc 83fd 3bbd 00df ddbd 4e12 16be
00000360: a6ef 873c a987 2c3e a9ca fb3d ae1d a4bd
00000370: f6b9 9b3e f473 71be a60e 8d3d f061 7abc
00000380: 9374 fd3d df6a 073e 3bb7 f13d 9ae3 2c3d
00000390: af89 bc3d 4275 ef3d a337 553e 4c89 84bc
000003a0: ccc9 6fbc 8623 233e 0c97 1a3c c0eb 66bc
000003b0: e015 ebbc a9e7 063d f631 b73c 0020 5dbc
000003c0: 1468 083c dcba 443c bb4b 6d3d 7421 003e
000003d0: 6a5f 233d bc66 b2bc 261b eebd 4538 7fbd
000003e0: 0785 4e3d 8f86 0ebd 3798 5a3d 88a1 82bd
000003f0: fc39 0bbd 082a 40bd 917b 103d 5cd3 5abc
0.02086217 -0.04323859 -0.10669285 0.053390697 0.08954849 0.06856967 -0.05980555 -0.029182427
0.12147107 -0.16773233 -0.0030692886 -0.03837034 -0.009625673 0.0693063 0.012600394 0.032826073
0.08289024 0.013580711 0.008455427 -0.08003014 -0.06999915 0.051955417 0.08524931 0.043422583
-0.041786462 0.036132596 0.068259604 -0.16650602 0.004688591 -0.03523186 0.0055655893 0.11867118
0.07989911 0.051587407 0.14262027 -0.011781725 0.19068898 0.12747052 0.13848351 -0.068192534
-0.18008126 -0.049483404 0.0016582991 0.024324652 -0.13505045 -0.049238697 0.059446063 -0.11637878
0.08890683 0.010542568 -0.1543055 -0.031744137 -0.05761917 -0.018989753 0.08977014 -0.011601119
-0.10249805 0.13925876 0.11956151 0.07270773 -0.0132475495 0.041906174 0.062133104 0.21282987
0.15367632 -0.03744362 0.04066077 0.030543007 0.19071586 0.008145228 -0.1210338 -0.006495104
0.020847954 -0.029160356 -0.0024920653 -0.01137155 -0.119390704 0.027444229 -0.15545978 0.0016730253
0.01479784 0.005059933 -0.086759605 -0.048970964 -0.011475024 -0.17480554 0.005782773 -0.05480721
-0.0171533 -0.022377843 -0.02263961 0.033681612 -0.043350965 -0.01767565 -0.029022278 0.014344748
-0.006018944 0.057882283 -0.015421975 0.19529395 0.15924147 -0.08904061 0.092756286 0.17173348
0.07077586 -0.20389883 -0.09992896 0.009912394 -0.027116276 0.07559981 -0.024026163 -0.10798125
-0.010364185 -0.016747838 -0.050459716 -0.013695201 -0.05386168 0.0077785673 -0.0055182273 0.04346181
-0.080097765 -0.102952205 -0.0637593 0.065024056 0.018206485 -0.08313124 0.060393557 -0.022522371
-0.009980937 0.012786025 0.001338871 -0.10184647 -0.08525322 -0.19510974 -0.07101596 -0.041555256
-0.13699147 0.14008246 -0.1518643 -0.05986189 0.041821543 -0.08892297 0.017429821 0.075700186
-0.030083152 0.07175652 -0.13728784 -0.04107499 -0.06428842 -0.07760043 -0.034905776 0.035742104
0.044712827 -0.14095315 -0.09178654 -0.06308697 -0.016265262 0.026337035 -0.049382787 0.059707988
-0.015939657 0.03750513 -0.029097376 -0.0344688 -0.14080703 -0.1415924 -0.12900543 -0.1760215
-0.18956497 -0.22193353 -0.19335118 -0.014080148 -0.012276914 0.033623133 -0.047168918 -0.018071212
-0.1412541 0.013392323 0.07473463 -0.032124862 -0.06089367 0.093454756 -0.1836029 -0.027624972
-0.024623638 -0.040637393 -0.06092777 -0.03504011 -0.04441474 -0.11958704 0.13290878 -0.06139007
-0.20785618 -0.12689114 -0.09004717 -0.017895587 0.012824084 -0.08598961 0.2686581 0.17316343
0.10271141 0.23409748 0.046983402 0.13127756 -0.1558666 0.09146926 -0.0647163 0.009734258
0.0050304243 0.12986854 -0.12724428 -0.19041309 -0.028857214 -0.045896064 -0.108335495 -0.1465542
0.016593765 0.16848625 0.12294514 -0.080134735 0.30415314 -0.23579389 0.068875596 -0.015282139
0.123757504 0.13224362 0.118025266 0.042209245 0.092059486 0.11692287 0.20822005 -0.01617875
-0.0146355145 0.1593152 0.009435426 -0.014094293 -0.028696954 0.032935772 0.02236269 -0.013496399
0.008325595 0.012007441 0.05793355 0.12512761 0.039885916 -0.021777503 -0.11626272 -0.062309522
0.050419834 -0.034796294 0.05336782 -0.06378466 -0.033990845 -0.046915084 0.035274092 -0.013356056

3.bias f4 [64]
00000000: 2308 2abd 8ca8 0e3c d950 7abc 02e0 713d
00000010: 922c 85bc 84c0 95bd 8e9d e4bd 32e3 8d3c
00000020: a9f2 38bd 4cca 81bd 8cfe 6fbc 28c9 b5bd
00000030: aaf5 77bb 0b88 18be 2642 393d fcd2 35bd
00000040: 6d0f 38bd 236a a7bd b614 7fbd 9b87 aa3c
00000050: dede 5a3d 8ea3 b7bc 2ae7 f6bc efd7 133d
00000060: 0894 72bd 12e2 9dbd 8ab6 ea3c 876b a0bd
00000070: 9324 b6bd 224b 37bd f996 a7bd 3d15 d3bd
00000080: 1982 c9bc 01f9 05bd b895 e0bc 19c6 39bd
00000090: 3ab6 bfbd af61 e4bd 77e3 47bd 5b3e 773d
000000a0: ee9e 9ebc 4324 94bc 4739 e93b 2248 86bd
000000b0: b98b e7bc 3b13 033d 86d0 84bc c55d b9ba
000000c0: d8b6 a3bc c1a8 a7bd 0e44 88bc 298e 6fbd
000000d0: a383 f2bd 2a4b 93bd 9c90 42bc fe0f 77bd
000000e0: abb4 a2bc c8be 06be ef05 65bd 842c 813a
000000f0: 4937 073d 52e6 babc af4f 3abd fab4 15bc
-0.041511666 0.008707177 -0.015278065 0.05905152 -0.016256604 -0.0731211 -0.11162864 0.01732025
-0.045153294 -0.06337413 -0.014648091 -0.08876258 -0.0037835636 -0.14895646 0.0452291 -0.044390664
-0.044936586 -0.08174541 -0.06227561 0.020816615 0.0534352 -0.022416856 -0.030139524 0.036094602
-0.059223205 -0.07709135 0.028651495 -0.07833009 -0.08893695 -0.044749387 -0.081830926 -0.10306785
-0.024598168 -0.03270817 -0.027415141 -0.045354936 -0.09360929 -0.11151444 -0.04880091 0.0603622
-0.019362893 -0.018083697 0.0071174237 -0.06556727 -0.028264867 0.03200076 -0.016212713 -0.0014142325
-0.019984648 -0.08186484 -0.016634014 -0.058485184 -0.11841514 -0.07192071 -0.011875298 -0.060317986
-0.01986154 -0.13158715 -0.05591386 0.0009855186 0.03301171 -0.022814903 -0.04548615 -0.009137386

7.weight f4 [128, 1600]
00000000: f39f 8a3d 30bc 34bc 4d20 35bc 00b0 5dbd
00000010: c68b 28bc 428b c33c 4a52 ddbd aff3 43bc
00000020: 757e 3bba a53d 993b abe2 0e3c 56ff 2bbe
00000030: b8ce 06bd dd73 423c 71b2 ef3d 9b1c 303c
00000040: 5b35 86bd 2fc4 343c b7af fd3c 71f9 823c
00000050: f36d 3a3d 22f6 1cbc be1b 4c39 acf1 b0bd
00000060: eadf 07be 6460 5dbd 835a 33bd 1dab 4cbd
00000070: c1fb ed3d a811 6d3e 910f 033e df1b 4a3d
00000080: 2d28 9d3d 40bc 5cbe e5f4 48bd 0e71 063e
00000090: 4e44 873d d982 643d 0f66 123e b2c7 2a3d
000000a0: d2cf f93c 2335 7b3d 1239 133b 1a57 403c
000000b0: b14e a0bc df2c b33d 90b9 a73c 59fd 6b3d
000000c0: 5bc2 473c 396a 22bd 5bb2 41bc c5ca 84bd
000000d0: 45d7 f4bd 3cd1 643d fa59 de3c 6902 303e
000000e0: a847 103d 5143 8bbe 6768 0ebe 1f84 0cbd
000000f0: 5c8f c83c 434e fdbc 4e74 62bd 21b9 f5bd
00000100: 4497 ad3d d285 7b3d e72c 52bd 273f c1bc
00000110: d42e 51bd 6623 993d 63b2 1a3c 0a34 843d
00000120: 1608 19be 175f 843b 0d8d c23c a960 963c
00000130: b98b ab3b 793f 85bd 188c 87bd 0f09 0c3d
00000140: 5933 9fbd 0f2c edbd 079a ebbc 22ca 44bc
00000150: ad07 3e3d 9197 373d d04d d43c 1076 ee3d
00000160: d9b0 9b3d 101d ce3c e132 a03d 4888 04bd
00000170: 8977 d8bc d85f c03c e8ec e53c 4302 13bd
00000180: f3f1 363d adea 9d3d 28f4 533c 5d0d 4cbc
00000190: f3f9 583d e95f 8abb ab45 d93d 8a40 af3d
000001a0: ec09 593d fc60 d43c 9985 a93c ba51 a2bd
000001b0: 7270 24be e1cc 1bbe 7908 4e3d 739b 6ebc
000001c0: 3fb2 17bc 5c63 023c 85e0 4f3d 44b0 853d
000001d0: 7711 c53d 3b19 643d 5bf3 413d 4665 f93d
000001e0: 2802 e7bc 31af 813d 4e0b 90bd c9b5 b5bd
000001f0: 2f7e ddbd 021d 0f3d 9039 a6bb 01a8 c3bb
00000200: a5ce 69bc 0b3e 083a 9463 de39 f474 8cbd
00000210: 4348 5f3d 1c64 8fbc c9dc 823d 3f47 a33c
00000220: 71c1 4b3c 1485 223d 0416 903d 065b 38ba
00000230: 4956 a63c a517 553d d262 05be ffba 7ebd
00000240: 1309 ee3d bb50 96bc 9d8e 0a3d 0dec ef3c
00000250: d60e af3b 51c6 da3d aea9 303d e596 823b
00000260: 2502 52bd 9af5 a8bc 5b09 baba c407 0abd
00000270: 4764 1bbe 39ce 65bd 10fb 1bbd 263d c7bc
00000280: 18ac e33c d965 05be 9a4f 093c 057e 86bb
00000290: 2bd0 a33d b708 1d3e 4ba7 a13d e06f fcbc
000002a0: 1984 a7bc a942 a0bd 0de7 a53d ccd9 22bb
000002b0: 8434 ecbc dcf3 703d 76ff ac3b 22e0 0b3c
000002c0: c70c 373d 8f6d 9b3b eef2 183e daab 633e
000002d0: 00c0 7cbc 662f f23b e336 28bc d394 fc3d
000002e0: b6fa fcbd a252 c33d a8c5 343d fab8 a6bd
000002f0: 0b04 79bd ed48 14be b504 05bd 978e 893d
00000300: 74b9 21be 22d3 00be 51ef a8bd 08e6 b23c
00000310: 363b 64bc 9f36 edbd 350e 00bc ce6f cb3b
00000320: ba87 74bd 27bf c63c 48c2 9fbd 9615 0cbe
00000330: abe4 a73d 4a94 bb3d 7517 3bbe b186 80be
00000340: b242 16be ef40 64bd 23a6 dbbd 9580 75be
00000350: 5727 8fbd 46b0 0d3d ef95 fe3d ddcd 473b
00000360: 53cd 8bbd 2e80 1ebd 144c 103e e9db 56bd
00000370: 8593 0d3e 58a3 1bbd 24ca f13c 9831 8d3c
00000380: ca55 cdbc ab24 853c c628 fabc 3a5d 3cbb
00000390: c4cc 6abd 9d5c b4bd a96c cabd 9b8f 023e
000003a0: 00da d43d a754 ac3d f08a 413d 9063 17bd
000003b0: ab64 e73d 63f6 803d 9208 f83c d82b 243c
000003c0: 893e a33b 3b4e 353e 00ca ad3c 1557 cdbd
000003d0: f967 5fbd 4b42 413d 009d e03d a2fa f9ba
000003e0: fdec c8bd 9b8e 9fbd b97a 02bd 9208 15bd
000003f0: 0f28 a7bc eb7a 11bd 92ff 813d 6a19 853d
0.06768789 -0.0110311955 -0.011055064 -0.054122925 -0.010287231 0.023870114 -0.10806711 -0.011959954
-0.00071523275 0.004676538 0.008721034 -0.16796622 -0.032911986 0.011868444 0.11703957 0.010749008
-0.065531455 0.011033102 0.030967576 0.015988084 0.045515012 -0.009580167 0.00019465291 -0.08639845
-0.1326901 -0.054047003 -0.04378749 -0.049967874 0.11620284 0.23151267 0.12798907 0.049342986
0.076736785 -0.21556187 -0.049061675 0.13129064 0.06604825 0.05578885 0.14296745 0.04169435
0.030494604 0.061329972 0.0022464436 0.011739517 -0.019568773 0.08748793 0.020474225 0.057614658
0.012192334 -0.039652083 -0.011822308 -0.06483988 -0.11955122 0.055863604 0.027142514 0.1718842
0.035224587 -0.27199796 -0.13907014 -0.034305688 0.024482422 -0.030921107 -0.055286698 -0.11998201
0.08476117 0.061406918 -0.051312353 -0.023589684 -0.05107005 0.07477455 0.009441945 0.06455238
-0.14944491 0.004039656 0.023748899 0.018356638 0.005235162 -0.06506247 -0.06618518 0.034188326
-0.07773466 -0.11580669 -0.02875997 -0.012011083 0.04639404 0.04482228 0.02591601 0.116436124
0.076020904 0.025160342 0.078222044 -0.03235653 -0.026424186 0.023483202 0.028067067 -0.03589083
0.044664335 0.077107765 0.012936629 -0.012454358 0.052972745 -0.004222859 0.10608991 0.08557232
0.052987978 0.025925152 0.020693587 -0.07925744 -0.1605852 -0.15214874 0.05030105 -0.014563429
-0.009258806 0.007958259 0.050751228 0.065277606 0.09622472 0.055688124 0.047351222 0.121775195
-0.02819927 0.06332243 -0.07033406 -0.088725634 -0.10815083 0.034939773 -0.00507278 -0.0059709554
-0.014270459 0.00051972334 0.0004241733 -0.068582445 0.054512274 -0.01750379 0.06389768 0.019931434
0.012436257 0.039677694 0.07035449 -0.00070326065 0.020304816 0.052024502 -0.13025978 -0.062190052
0.116228245 -0.018349042 0.033827413 0.029287362 0.0053423448 0.10682357 0.04313057 0.003985273
-0.051271576 -0.020624924 -0.0014193462 -0.033698812 -0.15174972 -0.056104872 -0.03808123 -0.02432115
0.027792022 -0.13027133 0.008380795 -0.004104378 0.07998689 0.15335356 0.07893237 -0.030815065
-0.020448731 -0.078252144 0.0810071 -0.0024849055 -0.028833635 0.058826312 0.0052794768 0.008537324
0.04468992 0.004743285 0.1493642 0.22233525 -0.015426636 0.0073909042 -0.010266992 0.123330735
-0.12352507 0.09537245 0.044133812 -0.0814075 -0.06079487 -0.14480944 -0.032475192 0.0671665
-0.15793401 -0.12580541 -0.08248771 0.021838203 -0.013930133 -0.11582684 -0.007815887 0.0062083965
-0.05969975 0.02426107 -0.07800728 -0.1368011 0.08197912 0.09159143 -0.18270667 -0.2510276
-0.1467388 -0.055725988 -0.107250474 -0.23974831 -0.06989925 0.034591936 0.12430941 0.0030487694
-0.06826272 -0.03869646 0.14091522 -0.052455816 0.13825805 -0.037997574 0.029515333 0.017235562
-0.025065321 0.016252836 -0.03053702 -0.002874209 -0.057324186 -0.08806727 -0.098840065 0.12750094
0.10393143 0.08414584 0.04725164 -0.036960185 0.11298498 0.062969945 0.030277524 0.010020219
0.00498182 0.17705624 0.021214485 -0.10026375 -0.054542515 0.047182363 0.109674454 -0.0019071887
-0.09810827 -0.07790872 -0.03185532 -0.036385126 -0.020404844 -0.035517614 0.06347574 0.06498988

7.bias f4 [128]
00000000: 4222 26bc e85d 1e3c 4c1b dfbc 88af ba3c
00000010: 652d 2a3d 6019 3abd 3d17 883c 26b7 e9bc
00000020: a7b0 393c a739 813d 512c 51bc b82e 033d
00000030: 3715 6cbc 3f60 0fbd f035 313d 6061 41bc
00000040: aaec 803d 44c1 a93b f1ed 2a3c 74c2 a73b
00000050: 3dcc 863c 155c 313d 9b41 3f3d f5e2 593a
00000060: f0e8 1d3c 2000 08bd 7f44 ccbc 9acb 9d3d
00000070: fcb6 8d3b fc13 4dbd 627b afbc e7b2 2dbd
00000080: 87d6 b7bc e3e5 ff3c bd15 53bb 6b8a 2bbb
00000090: 17a0 91bc 9245 5fbd 88e6 f93b 0737 04bd
000000a0: 6259 46bc 57fc de3c efa3 173d 02e8 3b3d
000000b0: 4e22 d4bd cdfa 853c 27f5 88bb 1035 00bd
000000c0: b26d 303a fb8d 88bc 21bf a73c 0b69 89bc
000000d0: fc94 683d 985f 6a3d 1968 debc b4c2 603c
000000e0: bece 5cbc 4c68 b4bc 23ef da3c 965f 18bd
000000f0: 8e59 453c 05c7 c3bb ac68 9438 487c edbc
00000100: ce99 c6bb f661 613d f0c2 6f3b 5d80 c93c
00000110: c66d 46bd 7ab9 ce3c 4c50 b03c f061 b33c
00000120: a583 0b3c dcb9 2f3b 1237 0bbd bb03 02bc
00000130: 300f 41bc c30e 98bc 7954 39bc 64d4 60bc
00000140: 668a 33bd ab95 263c cdab 31bd c019 d1bc
00000150: 1b58 2b3c c180 18bd 4914 82bc 5e26 77bc
00000160: df3c c0bc 7c85 bebb 0a67 62bc c487 87ba
00000170: 1a32 d53b 49bd 50bb a94d 5f3c 45dd debb
00000180: 0f84 abbc 0f12 fdbc 0fb8 6e3b e18b c6bc
00000190: 0607 fabc 6a64 92bc 686c 5e3b 4152 823c
000001a0: 8ab5 c8bc 79a5 5a3c e31c 1e3d 6e24 123d
000001b0: 29d4 dcbc 175b 023c 1efb 1c3d 6d57 353d
000001c0: 3f81 073d 7375 4e3c 9b33 ab3c 54ad 96bd
000001d0: 1644 4e3b 7574 8cbc 6201 923c 6313 543c
000001e0: 3328 85bc c2d9 44bd 61cd 31bc 3cc7 3b3c
000001f0: 454a e73b 734e 77bc 28d1 e0bc d8df 3a3c
-0.010140004 0.009665944 -0.027234696 0.022788778 0.041547198 -0.045434356 0.016612643 -0.028529715
0.011333621 0.063098244 -0.0127669135 0.032026976 -0.014409355 -0.035003897 0.04326433 -0.011803001
0.0629514 0.0051805098 0.010432706 0.005119616 0.01645481 0.043300707 0.046693426 0.00083117123
0.009638056 -0.033203244 -0.024935005 0.077048495 0.004324792 -0.050067887 -0.021421138 -0.042406943
-0.022441162 0.031237548 -0.0032209002 -0.0026175033 -0.017776532 -0.054509707 0.0076263584 -0.03227904
-0.012106271 0.027219934 0.037021574 0.045875557 -0.103581056 0.016354943 -0.004179615 -0.031300604
0.0006730213 -0.016669264 0.02047688 -0.016773721 0.056782708 0.05722007 -0.027149247 0.013718296
-0.013477026 -0.022022389 0.026725357 -0.037200533 0.012045277 -0.0059746527 7.0766866e-05 -0.028989926
-0.0060608154 0.055025063 0.0036584698 0.024597341 -0.04844453 0.025234926 0.021522664 0.021897286
0.008515273 0.0026813662 -0.033988066 -0.00793546 -0.011783406 -0.018561726 -0.011311644 -0.013722513
-0.04383316 0.01016752 -0.043376733 -0.025524974 0.010458018 -0.037232164 -0.015878813 -0.015084831
-0.023466526 -0.0058142524 -0.013818512 -0.0010340144 0.0065062167 -0.0031851104 0.0136293555 -0.0068012797
-0.020936994 -0.0308924 0.0036425625 -0.024236621 -0.030520927 -0.017870147 0.0033939127 0.015908362
-0.024500627 0.013345116 0.038601767 0.035679273 -0.026956635 0.007956288 0.03832542 0.04427283
0.033082243 0.012601244 0.02089863 -0.073572785 0.0031473688 -0.017145375 0.017822925 0.012944075
-0.01625452 -0.048059233 -0.010852189 0.011461075 0.007058414 -0.015094387 -0.027443483 0.011405908

9.weight f4 [10, 128]
00000000: 498b 5d3d 4c26 0e3e 6235 b9bc dd93 6dbc
00000010: d75b 8d3d 538e b4bd 6e73 0fbd 2852 2abd
00000020: 0d59 64be c08b 77bc 77e1 97bd ff4a c0bd
00000030: c310 2bbd 1a29 133d 7d9f 103d 35f5 813d
00000040: 15dc f63d deb6 4fbe 2bf1 ac3b ee06 29bd
00000050: fb9d 663c d7ef 30be b68c d6bd 2e05 cdbb
00000060: ae7e ecbd c085 0abd 7905 d3bc 5a8f 9d3d
00000070: 213e b33c 6797 a7be d390 39bb 5dc9 05bd
00000080: ba91 9f3d 856b 8fbe d567 b43d 674a 01bd
00000090: 617b 513d f0b8 7a3d 6624 b2bd 0a7c 093d
000000a0: 3b3a 9abd 6234 e83c 3ceb a1bc ce17 063d
000000b0: a00a e13d 85c0 1f3e 2c52 0bbd 0c26 9bbd
000000c0: 47da 05be fea4 08be 82ad 13be b80c 9ebd
000000d0: e4e4 34be 766c 4b3d fe71 bebc d0e4 bdbb
000000e0: eb86 2fbe b0a3 0c3d 808a 863d aaa8 613d
000000f0: 8284 823d 3d9e 9abd 0bad 3b3e dc5f 473c
00000100: 1e5f 873d bfff 633e 5b6a 8cbe 6e37 d13c
00000110: 3af3 fbbb 6ea5 ac3d bbb6 d9bd 0385 b63d
00000120: 996f 43be 3217 d73d 34e5 2d3d 61ae 8dbd
00000130: 0a03 eb3d 5fd1 73bd 0a3b 84be 4be1 533e
00000140: f65b a83b a011 2d3e f435 67bc dd4a 27be
00000150: d41d 4b3d a0ad a0bd be7a 80bd f103 8bbb
00000160: 9fdf 773d 4372 79bd 2f49 65bd 9ecd 8fbd
00000170: f211 563d dbb2 e6bd efcf 053d 785d d4bc
00000180: 5ec1 3fbd f8cb 143d e81a 4ebd 483e 483d
00000190: 986c 57bd 3b02 513d c933 943d 240c 803d
000001a0: 6886 9dbd f7f9 923d db55 6e3d 9cbf 02be
000001b0: 0b64 483d 5aa0 27bb 32b3 78bc 4be6 573d
000001c0: 3f3a d23d f509 293d 88f6 24bc d981 0cbe
000001d0: 99d9 dfbe 7cb6 afbd 18f6 3c3e e1fb efbc
000001e0: 9bf2 b83d 77d8 393d 5d13 99bb 57b2 a7bd
000001f0: 1496 32be 0ca7 4cbd 0d87 8c3d 56d3 a73d
00000200: 0e4e 04be 03eb 48bd 25fd 933d 2807 833d
00000210: a8c3 6b3d cdb0 2ebe 5479 babb 6afd 533d
00000220: 8a7d ffbc cc84 f43d 1976 e13b d181 bf3c
00000230: ba85 883d 7251 0bbd ccdd 5f3e 1f14 42bd
00000240: 5a2a c43d 0524 8dbd eb3a 7f3d 3772 263c
00000250: 4811 bf3c e7f9 823d d878 293e ffff 1b3d
00000260: 9a12 373d 3834 62be c163 4b3d f72a 1d3e
00000270: d469 763a ea28 3dbe b738 1abd 930d 67bc
00000280: 61e7 413d c822 9f3e 6412 9f3c 365b 0dbe
00000290: 7148 0cba 0926 0fbc 2a75 87bd 9bab 633d
000002a0: c9f9 34bc 0d6f c2bd d51d 823d 32f6 273e
000002b0: 7ef7 c33d eb12 59bd 7a77 66bd b7cc 903c
000002c0: 0940 e3bd 02b7 3abe c714 033e 411f 73bd
000002d0: acd8 8a3d 5f20 193e 7898 e9bd a7a1 04bd
000002e0: 08ef 063d 1031 aebd 2ab3 d8bb 2e1a 8c3d
000002f0: 15a8 e4bb 65fc 14bd 7f3f f3bb 0e7e e6bb
00000300: 3b5c 37be eaed 4d3e 5307 843d b4cb abbc
00000310: 29e7 593e 8861 6dbd 04cf 163e 0dff 57be
00000320: 24c1 c1bb 4675 32be 513a 80be 0c50 b0bd
00000330: 1849 46be 82bb 7d3d 3d60 db3d aea7 3b3e
00000340: 936d d2bc 7cd5 5abd 5c03 543d 0e84 3ebe
00000350: 7d08 ed3d a115 fb3d 8b3b 9cbe daa4 8abd
00000360: c36e 543d f330 65bd 658c bfbc 505c 9fbd
00000370: d7c5 26be 7ff5 c7bb a4ca 043d d900 073d
00000380: cbb5 d33c 94ca 0b3d 842b 8c3d ea50 94bd
00000390: 8d64 47bc 0063 99bd 6f4c 413d 3fb8 ed3c
000003a0: b9fe 433d ab32 0abd db08 883d 1f14 a63d
000003b0: 6d8a 08bd 5981 48bd b99e 863d a685 253e
000003c0: 365b 50be 3ccd fabd c439 ff3c 4985 763d
000003d0: 048f d53c 5ad5 823d 0a60 abbd a906 913c
000003e0: 4579 25be 04ca d53c 3508 483d edd0 7ebc
000003f0: 7070 533c 6c6e 84bd 880e 90be bcd4 853d
0.05408791 0.13881797 -0.022608463 -0.014500585 0.06902283 -0.08816209 -0.03502219 -0.041582257
-0.22299595 -0.015109003 -0.07416051 -0.09389304 -0.041764032 0.03592787 0.03530835 0.06345598
0.12053696 -0.20284602 0.005277773 -0.041266374 0.014075751 -0.17278992 -0.10476057 -0.006256721
-0.115476 -0.03381896 -0.025759446 0.07693358 0.021880211 -0.32732698 -0.0028315082 -0.032662738
0.07791467 -0.28011718 0.08808867 -0.031565096 0.051143054 0.061211526 -0.08698349 0.03356556
-0.07530638 0.02834529 -0.019765489 0.032737546 0.10988355 0.15600784 -0.034013912 -0.07575616
-0.13071547 -0.1334419 -0.14421657 -0.0771727 -0.1766544 0.049663983 -0.023247715 -0.005795099
-0.17141311 0.034335792 0.065693855 0.05509249 0.0637293 -0.07549713 0.1832773 0.012168851
0.06609939 0.22265528 -0.27424893 0.025539126 -0.007688907 0.08429991 -0.10630556 0.08912089
-0.1908554 0.10502471 0.042454913 -0.06918026 0.11475189 -0.059525844 -0.25826293 0.20691411
0.0051379157 0.16901255 -0.0141119845 -0.16337152 0.049588993 -0.07845616 -0.06273411 -0.004242413
0.060515996 -0.060899984 -0.055977996 -0.0702164 0.052263208 -0.11264583 0.032669004 -0.025923476
-0.04681527 0.036327332 -0.05031863 0.04888752 -0.052593797 0.051027518 0.0723644 0.06252316
-0.076916516 0.07176583 0.058187347 -0.12768406 0.048923533 -0.0025577755 -0.015179442 0.05270986
0.10265016 0.04126926 -0.010068543 -0.13721408 -0.437207 -0.08579728 0.18453252 -0.02929491
0.09030648 0.045372453 -0.0046714977 -0.081883125 -0.17440063 -0.049963996 0.068616964 0.08194606
-0.129204 -0.04905225 0.07226018 0.06397849 0.05755964 -0.17059632 -0.005690733 0.051755346
-0.031187791 0.119393915 0.0068805334 0.023377331 0.06666131 -0.03401322 0.21861953 -0.04738247
0.095783904 -0.06891636 0.062312048 0.010159067 0.02332367 0.06395321 0.16550004 0.038085934
0.044695474 -0.22090232 0.04965568 0.15348421 0.0009399925 -0.18472639 -0.037651744 -0.014102357
0.0473398 0.31081223 0.019417949 -0.13804325 -0.0005351371 -0.008737096 -0.06614144 0.055583578
-0.011045882 -0.094938375 0.06353346 0.1640251 0.0956869 -0.052996557 -0.056266285 0.01767574
-0.11096198 -0.18233874 0.12800895 -0.059355978 0.06779608 0.14953755 -0.11406034 -0.032380726
0.0329428 -0.08505452 -0.006613155 0.06840931 -0.0069780448 -0.036373515 -0.007423341 -0.00703407
-0.17906277 0.20110288 0.064467095 -0.020971157 0.21279587 -0.05795434 0.14727408 -0.21093388
-0.0059129167 -0.17427549 -0.25044492 -0.08609018 -0.1936382 0.0619464 0.10711715 0.18325683
-0.025687015 -0.05342625 0.051761016 -0.18605062 0.11573885 0.12259985 -0.30514178 -0.06769724
0.051863443 -0.055954885 -0.023382375 -0.07781279 -0.16286407 -0.0061022635 0.032419816 0.032959793
0.025843522 0.03412874 0.068442374 -0.07241996 -0.012169969 -0.07489586 0.047192033 0.02901852
0.047850344 -0.033739727 0.06642314 0.081093065 -0.033335138 -0.04895148 0.06573243 0.16164264
-0.20347294 -0.122461766 0.031155474 0.060185704 0.026069172 0.0638835 -0.08367927 0.017703371
-0.16159542 0.026097305 0.04883595 -0.0155527415 0.012905225 -0.06466374 -0.28136086 0.065347165

9.bias f4 [10]
00000000: 8ea5 92bc 45c6 313d de2e 40bc 6878 433c
00000010: 3b7c 7c3c 3b0b 46bd 609d d7bc 0f1a b3bd
00000020: 3ad5 41bd 3069 8ebd
-0.017901208 0.043401975 -0.011729924 0.011930563 0.015410478 -0.048350554 -0.02632016 -0.08745205
-0.04732249 -0.06953657
